Model: "model"
_________________________________________________________________
Layer (type)                 Output Shape              Param #   
=================================================================
input_1 (InputLayer)         [(None, 10, 10, 1)]       0         
_________________________________________________________________
Conv2D_layer_1 (Conv2D)      (None, 10, 10, 100)       1000      
_________________________________________________________________
Conv2D_layer_2 (Conv2D)      (None, 10, 10, 100)       40100     
_________________________________________________________________
batch_normalization (BatchNo (None, 10, 10, 100)       400       
_________________________________________________________________
Conv2D_layer_3 (Conv2D)      (None, 10, 10, 100)       90100     
_________________________________________________________________
Conv2D_layer_4 (Conv2D)      (None, 10, 10, 100)       40100     
_________________________________________________________________
batch_normalization_1 (Batch (None, 10, 10, 100)       400       
_________________________________________________________________
Dropout_layer_1 (Dropout)    (None, 10, 10, 100)       0         
_________________________________________________________________
Conv2D_layer_5 (Conv2D)      (None, 8, 8, 100)         90100     
_________________________________________________________________
Conv2D_layer_6 (Conv2D)      (None, 7, 7, 100)         40100     
_________________________________________________________________
batch_normalization_2 (Batch (None, 7, 7, 100)         400       
_________________________________________________________________
Conv2D_layer_7 (Conv2D)      (None, 5, 5, 100)         90100     
_________________________________________________________________
Conv2D_layer_8 (Conv2D)      (None, 4, 4, 100)         40100     
_________________________________________________________________
batch_normalization_3 (Batch (None, 4, 4, 100)         400       
_________________________________________________________________
Conv2D_layer_9 (Conv2D)      (None, 2, 2, 100)         90100     
_________________________________________________________________
Conv2D_layer_10 (Conv2D)     (None, 1, 1, 100)         40100     
_________________________________________________________________
batch_normalization_4 (Batch (None, 1, 1, 100)         400       
_________________________________________________________________
MaxPooling2D_layer (MaxPooli (None, 1, 1, 100)         0         
_________________________________________________________________
Flatten_layer (Flatten)      (None, 100)               0         
_________________________________________________________________
Dense_layer (Dense)          (None, 100)               10100     
_________________________________________________________________
batch_normalization_5 (Batch (None, 100)               400       
_________________________________________________________________
Dropout_layer_2 (Dropout)    (None, 100)               0         
_________________________________________________________________
R_eff (Dense)                (None, 1)                 101       
=================================================================
Total params: 574,501
Trainable params: 573,301
Non-trainable params: 1,200
_________________________________________________________________

>>> training using 680000 data for a batch size of 64 in progress...

Epoch: 0, loss:0.0158,  mean_absolute_error:0.0545,  val_loss:0.0004,  val_mean_absolute_error:0.0149,  
........................
…
