Model: "FFNN"
_________________________________________________________________
Layer (type)                 Output Shape              Param #   
=================================================================
input (InputLayer)           [(None, 25)]              0         
_________________________________________________________________
125_nodes_hidden_layer_1 (De (None, 125)               3250      
_________________________________________________________________
625_nodes_hidden_layer_2 (De (None, 625)               78750     
_________________________________________________________________
625_nodes_hidden_layer_3 (De (None, 625)               391250    
_________________________________________________________________
25_nodes_hidden_layer_4 (Den (None, 25)                15650     
_________________________________________________________________
output_R_eff (Dense)         (None, 1)                 26        
=================================================================
Total params: 488,926
Trainable params: 488,926
Non-trainable params: 0
_________________________________________________________________

>>> training using 6000 data for a batch size of 32 in progress...

Epoch: 0, loss:0.0000,  mean_absolute_error:0.0044,  
....................................................................................................
…
